…
    "sent-2411-079": "Otsu-thresholding proved most effective \\begin{equation}threshold = argmax_t{\\sigma_B^2(t)}\\end{equation} where $\\sigma_B^2(t)$ is the between-class variance: \\begin{equation}\\sigma_B^2(t) = \\omega_0(t)\\omega_1(t)[\\mu_0(t) - \\mu_1(t)]^2\\end{equation} CNN Architecture:.",
    "formula-2411-004": "\\begin{equation}threshold = argmax_t{\\sigma_B^2(t)}\\end{equation}",
    "formula-2411-005": "\\begin{equation}\\sigma_B^2(t) = \\omega_0(t)\\omega_1(t)[\\mu_0(t) - \\mu_1(t)]^2\\end{equation}",
    "figure-2411-006": "\\caption{CNN Layer Configuration and Specifications} \\label{tab:cnn_architecture} \\begin{tabular}{llll} \\multicolumn{1}{l}{Layer} \\multicolumn{1}{l}{Configuration} \\multicolumn{1}{l}{Output Shape} \\multicolumn{1}{l}{Parameters} Conv2D 16 filters, (2,2) kernel (31,31,16) 80 MaxPool2D (2,2) pool, (2,2) stride (15,15,16) 0 Conv2D 32 filters, (3,3) kernel (13,13,32) 4,640 MaxPool2D (3,3) pool, (3,3) stride (4,4,32) 0 Conv2D 64 filters, (5,5) kernel (4,4,64) 51,264 MaxPool2D (5,5) pool, (5,5) stride (1,1,64) 0 Dense 128 units (128) 8,320 Dropout 0.2 rate (128) 0 Dense num\\_classes (num\\_classes) varies \\end{tabular}",
    "item-2411-010": "Item 02",
    "sent-2411-080": "Loss function: Categorical Cross-entropy \\begin{equation}L = -\\sum_{i=1}^{C} y_i \\log(\\hat{y}_i)\\end{equation}.",
    "formula-2411-006": "\\begin{equation}L = -\\sum_{i=1}^{C} y_i \\log(\\hat{y}_i)\\end{equation}",
    "item-2411-011": "Item 03",
…
